assets/models/sign_language_model.tflite (tflite, 151800 bytes, 12 tensors)

sequential/dense_1/BiasAdd/ReadVariableOp f4 [28]
00000000: 80cb 0bbd 2428 21bd a3a0 56bd 793a d1bd
00000010: b39a 3dbd 40d8 fbbd 9c11 dcbd 22b1 03be
00000020: 214e 69bd f1b9 733c 3e71 42bd 4f36 26be
00000030: 086d febc 59b9 5c3a d094 493d 2bbb 38bd
00000040: 8802 9bbd 340f 20be b102 b8bb 8511 693d
00000050: 971f 253c fbec ddbc 6df7 05be 1584 63bd
00000060: 0f09 05bd f676 c03d 6308 023f 613e 793e
-0.03412962 -0.03934492 -0.05239929 -0.10216231 -0.04629011 -0.12297106 -0.10745546 -0.1286054
-0.056959275 0.014875875 -0.047471277 -0.16231655 -0.03105785 0.0008419953 0.049214184 -0.045100372
-0.07568842 -0.156308 -0.005615555 0.056901474 0.010078332 -0.02709054 -0.13082667 -0.055545885
-0.032479342 0.0939769 0.5079405 0.24340202

sequential/dense/BiasAdd/ReadVariableOp f4 [128]
00000000: 4d27 41be 1ae7 93bd dbc5 04be 855b d2bd
00000010: d20c efbd 2fce 38be f614 27be 9a1f 1ebd
00000020: 4f92 bebd f266 f6bd 3078 ccbd 4a82 00bc
00000030: b2f8 4fbe 9036 a5bd 8797 f4bd 3d66 38bd
00000040: 14d6 e6bd c649 32be 5cd3 38be 8ce9 aebd
00000050: b347 f1bd fb9b f7bc 03d1 d7bd 08ff eabd
00000060: 074d 18be a1dc d4bd 1107 9ebd 39dc 86bd
00000070: 8286 76bd a45b 62bd 5801 dcbd db23 ffbd
00000080: 6495 10be 54b2 4fbc 88fe 07be ab6a 8abd
00000090: 2c9d 9abd 490b 69bd 3f8f 5fbd e5ef cabd
000000a0: b28f 36be 2a62 e3bd d613 38bc 081e 00be
000000b0: d22a a5bd 2479 1fbe 772e c9bd 28c3 23be
000000c0: a592 8bbd 483e e5bc 93f7 2cbe 5f79 e0bd
000000d0: 7e56 38bc f899 efbc f293 03be 61bd 2ebd
000000e0: fc61 e03c 8b33 f3bd a2a1 c3bd 46f8 6dbd
000000f0: 3ed8 e2bd 792f acbd 8190 d7bd 8fbe fbbc
00000100: 5a72 38be 8cf3 7cbc a7d3 a3bd c822 9cbd
00000110: 4ef9 afbd fb8b 34bd 294c bbbd f8cf 02be
00000120: 9e56 0dbe ed74 29be 5b69 a8bd 4384 f7bd
00000130: 2111 f5bd 47c1 92bd 368c 1dbe 7627 dabd
00000140: 06de 91bd 91bd 0bbd 7834 8dbd ee41 65bd
00000150: 6df7 19be c85a b3bd bebe 77bd 3044 e0bd
00000160: 86fd fdbd fb16 a3bd edc8 16be 92fd 89bd
00000170: 7c5b 60bd 7b58 4abe 165c 15be 5274 57bc
00000180: 5d5d 00bd d88f 62bd 2d5c 26bb 8082 cdbd
00000190: 4a3b cfbd 6ada c2bd d544 c6bc c7b8 42be
000001a0: cf6e 20be 3ff0 51bd 1f52 b4bd db04 e33c
000001b0: 4b84 e0bd 26d7 82bd 6a23 04be a4c0 6ebe
000001c0: c668 25be df4c 03be 5e36 56be e5ee 21bd
000001d0: 993d 85bd 8e6e 0abe 22f6 f0bc 0b18 54bd
000001e0: 4404 17be 59eb 82bd 11f8 98bd 5b93 9abd
000001f0: fa1c 2ebe 7089 16be d8ef 52be aee4 89bd
-0.18862648 -0.072218135 -0.12966101 -0.10271362 -0.11672367 -0.18047403 -0.1631659 -0.038604356
-0.0930525 -0.12031354 -0.099838614 -0.007843563 -0.20309713 -0.080670476 -0.11942964 -0.045019377
-0.11271301 -0.17410955 -0.18049377 -0.08540639 -0.11781254 -0.030225744 -0.10537913 -0.114744246
-0.14873134 -0.10393644 -0.077161916 -0.06584973 -0.06018687 -0.055263177 -0.10742444 -0.12458011
-0.14119488 -0.012676794 -0.1328069 -0.067586266 -0.075495094 -0.056895528 -0.05457997 -0.099090375
-0.17828253 -0.11102708 -0.011235198 -0.12511456 -0.08064808 -0.15573555 -0.098233156 -0.15992415
-0.068150796 -0.0279838 -0.16891317 -0.1096065 -0.01125109 -0.029248223 -0.12849405 -0.042661075
0.027390473 -0.118750654 -0.095523134 -0.0580981 -0.11076401 -0.08407492 -0.10525609 -0.030730514
-0.18012372 -0.0154389255 -0.07999354 -0.076238215 -0.08592473 -0.04407881 -0.09145386 -0.12774646
-0.13802573 -0.1654851 -0.0822322 -0.12085774 -0.11966158 -0.07165771 -0.15385517 -0.10652058
-0.07122426 -0.03411633 -0.06894773 -0.05597108 -0.15035792 -0.087575495 -0.06048464 -0.10950506
-0.124018714 -0.079633676 -0.14725085 -0.06737818 -0.054774746 -0.19760315 -0.14585909 -0.0131502915
-0.03133904 -0.05531296 -0.002538453 -0.100346565 -0.1011873 -0.095143154 -0.024202744 -0.190158
-0.1566727 -0.051254507 -0.08804726 0.027712276 -0.10962733 -0.063886926 -0.12904134 -0.23315674
-0.16153249 -0.12822293 -0.20919177 -0.03953447 -0.065058894 -0.13518736 -0.02941424 -0.05178074
-0.14747721 -0.06392545 -0.0746919 -0.07547637 -0.17003241 -0.14700866 -0.20599306 -0.0673307

sequential/batch_normalization_1/batchnorm/mul f4 [128]
00000000: a650 e83f 9388 ec3f 1fcf 1b40 4247 9d3f
00000010: bd70 0640 ef00 1340 b536 d33f 1ff8 d93f
00000020: 6467 0440 3a0f e03f b86c 0140 547d d63f
00000030: 25e0 fe3f 79ae f93f 0fdd 0b40 8949 1a40
00000040: e056 f13f 9c06 ff3f bfaa c63f 16ef 0140
00000050: 70ea 0d40 7316 0a40 c74f ee3f a434 1940
00000060: bc65 e83f 8236 3240 57ff ce3f bda9 af3f
00000070: 448a cd3f b099 c23f 172e ca3f f108 ca3f
00000080: fe8b e33f 0750 1040 0dbf 0040 e76c bd3f
00000090: e454 5640 6d6f ec3f 5476 d13f 4d5d 963f
000000a0: 0278 c73f cbd6 d13f 1e7b 2740 40bb ab3f
000000b0: 4d0c f13f ad04 0a40 0c8c ec3f 8e53 4e40
000000c0: d4a9 a63f 0c30 fc3f e021 ab3f 4fde cf3f
000000d0: ed50 e93f 123e 2a40 b4a1 c43f c469 fc3f
000000e0: 717d 953f c818 3740 3822 cd3f ba89 b83f
000000f0: 1003 1540 7a1e d63f 97c1 2640 3465 0d40
00000100: 65bf c03f 3504 1440 93b7 0340 3ea3 fd3f
00000110: 0496 1940 fee4 a93f eb47 b83f 5481 b93f
00000120: b484 fa3f b3d6 f73f cb2f e33f ec9d e03f
00000130: 08dd e43f ee2d de3f 265d a03f 7c48 d83f
00000140: f210 d53f 1f91 0840 8c7f 0f40 6834 1a40
00000150: 8676 f63f dc7e d53f 2af1 cc3f 8920 5340
00000160: fac7 e63f d67c d83f 118b 0640 8a2f 963f
00000170: ec4f 3140 5b08 a03f 4ae0 1d40 5f88 0b40
00000180: 73b1 a33f ce27 0240 5edb f23f 7522 d73f
00000190: a7e4 e03f be21 fe3f 78af d13f 078b fc3f
000001a0: 244d ed3f 9f0a c23f 6d8c d03f c279 fb3f
000001b0: ddba 0740 fbfa 0b40 2d6a 0040 9e15 0240
000001c0: 59bd 0240 bd8a 0b40 0440 6940 0670 ef3f
000001d0: ae67 cf3f fc01 1f40 8d59 0640 9f76 1240
000001e0: ca1c 1140 3bb5 4440 45eb da3f 657b b93f
000001f0: 5596 c43f d32d b93f 2220 ba3f 5844 1940
1.8149612 1.8479179 2.4345167 1.2287371 2.100631 2.296932 1.650107 1.7028846
2.0688105 1.7504647 2.0222607 1.6756997 1.9912153 1.950637 2.1853673 2.4107382
1.8854637 1.9923892 1.5520858 2.0302176 2.217434 2.1576202 1.8618096 2.393838
1.8156047 2.784577 1.6171674 1.3723675 1.605782 1.5203152 1.5795316 1.5783979
1.7777097 2.2548845 2.0116608 1.4798859 3.3489313 1.8471504 1.6364236 1.1747223
1.5583498 1.6393675 2.6168895 1.3416519 1.8831879 2.1565354 1.8480239 3.2238498
1.3020577 1.9702163 1.3369713 1.6239718 1.8227822 2.6600385 1.5361848 1.9719777
1.1678907 2.8608875 1.6026068 1.4417031 2.328312 1.6728051 2.6055658 2.209302
1.5058409 2.3127568 2.0580795 1.9815443 2.3997812 1.3273008 1.4396948 1.4492593
1.9571748 1.9362396 1.774896 1.7548194 1.7879953 1.7357767 1.2528427 1.689712
1.6645796 2.1338575 2.2421598 2.4094486 1.925492 1.667934 1.6011097 3.2988608
1.8029778 1.6913097 2.102238 1.1733258 2.770503 1.250255 2.4668145 2.1801984
1.2788528 2.0336795 1.8973196 1.680739 1.7569779 1.9854047 1.6381674 1.9729928
1.8539166 1.5159491 1.6292855 1.9646533 2.1207802 2.1871936 2.0064805 2.0325694
2.0428069 2.180343 3.6445322 1.8706062 1.6203516 2.484496 2.0992157 2.28849
2.2673821 3.0735614 1.7103049 1.4490782 1.5358378 1.446711 1.4541056 2.3947964

sequential/batch_normalization_1/batchnorm/sub f4 [128]
00000000: 017b 0fbf 8340 c0be bbed 85be 4ffc f9be
00000010: 7257 27bf 624e afbe 16a1 c7be 00de 24be
00000020: 80ab e6bd 4424 ccbe f66e fbbe 19c8 efbe
00000030: c2f8 63be 9102 b6be 136e c9be 2137 a6be
00000040: 7de3 1abf 41c7 01bf f753 07bf 74d8 fabe
00000050: e385 e3be 596c 40be 14f5 d0be 7078 bfbe
00000060: 2ad3 a5be 8250 a7be 14cb e7be aafa 8fbe
00000070: a26f 90be 70a4 f8be 2fb6 04bf c5ed 3fbe
00000080: d507 0abf a33f e1be a4d3 0dbf 136a 01bf
00000090: f586 c2be 6b57 f5be 6c08 b9be bc45 d2bd
000000a0: 56fe 0abf 385d c7be 2828 c1be 1639 24be
000000b0: 1a81 b7be ea15 2dbf 74a3 0ebf 821b 92be
000000c0: 2d6f abbe 69eb 02bf 5091 a4be 8f52 01bf
000000d0: 9143 23bf ccfb c2be 1c5b 1abf 24a9 c1bd
000000e0: 9dc1 d9be d6f3 c4bd 1e87 f5be 1c05 eebe
000000f0: a07b 24bf 1814 28be b05f 1ebf 83b6 f9be
00000100: ac36 f9be d89b 24bf a5f1 fabe e647 82be
00000110: 681a dfbe 19cf 0cbf f19e 10bf c446 04bf
00000120: be40 b4be 5ac9 9abe 0e31 07bf 3ec0 afbe
00000130: 7ea3 f9be 5b29 17bf 77a5 efbe f375 a3be
00000140: 248a eebe 8748 e2be e765 bbbe 94cf 15bf
00000150: 7efb a8be 0848 c6be c452 11bf 5ba3 e8be
00000160: 2f8f e2be 63a6 dfbe bb2e a7be 9423 d4be
00000170: 3418 aebe becd 05bf b2a3 b4be 3335 cebe
00000180: 865f 10bf c1dd b5be 8940 41bf 72a6 f0be
00000190: b27b e3be 4cee e2be c6e8 75be 074a a8be
000001a0: 92f9 aabe 6289 b4be 249a bbbe a6fe 21bf
000001b0: 76a9 efbe a6b0 cdbe 7bda fabe 8e4b edbe
000001c0: d278 22be 0d7d 96be d343 e5be 5400 1dbf
000001d0: 407c 95be 5534 f1be 2534 48bf 28e8 e3be
000001e0: de80 67be 4de2 22bf caf7 c4be 1444 04bf
000001f0: 614c 9ebe 5506 22bf 6ce0 cebe edfc e3be
-0.56047064 -0.3754922 -0.26157936 -0.4882531 -0.65367806 -0.3423949 -0.38990086 -0.16100311
-0.1126318 -0.39871418 -0.49108094 -0.4683235 -0.22262862 -0.35548833 -0.39341792 -0.32463935
-0.6050337 -0.5069466 -0.52862495 -0.48993266 -0.44438085 -0.18791331 -0.4081198 -0.37396574
-0.32387668 -0.3267861 -0.45272124 -0.2812093 -0.2821017 -0.48562956 -0.5184049 -0.18743046
-0.539182 -0.43993863 -0.5540106 -0.5055248 -0.3799359 -0.47918257 -0.36139238 -0.10267207
-0.54294336 -0.38938308 -0.3772595 -0.16037402 -0.35840684 -0.67611563 -0.5571816 -0.28536612
-0.33483258 -0.5114046 -0.32142115 -0.505166 -0.63774973 -0.3808273 -0.6029527 -0.09456089
-0.42530528 -0.096168205 -0.4795465 -0.46488273 -0.64251137 -0.16413915 -0.6186476 -0.48772058
-0.48674524 -0.643003 -0.49012485 -0.2544548 -0.43574834 -0.55003506 -0.56492525 -0.5167048
-0.35205644 -0.30231744 -0.52809227 -0.34326357 -0.48757547 -0.5904748 -0.46805927 -0.31925926
-0.46589768 -0.4419596 -0.36601183 -0.58519864 -0.33004373 -0.3872683 -0.56766915 -0.4543713
-0.44249865 -0.4368163 -0.3265284 -0.41433394 -0.3400284 -0.5226706 -0.3528114 -0.40274963
-0.5639576 -0.35520747 -0.754891 -0.47001988 -0.4443031 -0.4432243 -0.24014577 -0.32868978
-0.33393532 -0.35261065 -0.36641037 -0.6327919 -0.46808976 -0.40173835 -0.48994812 -0.46346706
-0.15866402 -0.2939228 -0.44778308 -0.61328626 -0.29196358 -0.4711024 -0.78204566 -0.4451306
-0.22607753 -0.6362656 -0.38470298 -0.5166638 -0.30917647 -0.6329091 -0.40405595 -0.44528905

sequential/batch_normalization/batchnorm/mul f4 [64]
00000000: 8610 0142 fb56 f541 78be 9340 8ff6 fe41
00000010: ee79 f240 66af e841 4500 fe41 91ae fd41
00000020: 4866 fb41 dd5e e340 5ef1 0b41 07a4 f641
00000030: 0742 f741 72bf 1340 f57a eb41 5f41 0142
00000040: 7c77 eb41 b50b ec41 6dd0 cd41 09f7 fa41
00000050: d1ff ea41 23b6 e241 328a 6f41 2d59 e841
00000060: b91c f941 9fc7 d840 b87c fb41 759f fe41
00000070: bf37 f741 71dc e941 04e9 fa41 a1c9 0242
00000080: 4c44 0c41 1f8a 8240 40b9 f941 074d f941
00000090: ba38 e941 8e03 0e41 2578 0142 23c4 0a42
000000a0: 0db6 fa41 96dd ff41 9bf0 1341 e768 fb41
000000b0: 0e0c fc41 5d69 fe41 02f7 f741 644d fa41
000000c0: 743b c840 5886 9b40 d72a ea41 4628 0242
000000d0: f6bf d641 0aec 0042 4b00 fd41 fb23 0841
000000e0: 3f16 fa41 21e8 f341 32bc e041 5e71 fb41
000000f0: f37d fc41 f108 e741 b601 fa41 f43c fa41
32.266136 30.66747 4.6170006 31.87039 7.577384 29.085644 31.750132 31.710238
31.424942 7.10533 8.746428 30.830091 30.90724 2.30856 29.435038 32.31384
29.433342 29.505716 25.72677 31.370623 29.37491 28.338934 14.971239 29.043543
31.139025 6.774368 31.435898 31.82786 30.90222 29.232637 31.363777 32.696903
8.766674 4.0793605 31.215454 31.162611 29.152699 8.875868 32.36733 34.69154
31.338892 31.983196 9.246242 31.426222 31.505886 31.801447 30.99561 31.287788
6.2572575 4.8601494 29.270918 32.53933 26.84373 32.230507 31.625143 8.508784
31.260862 30.488344 28.091892 31.430355 31.561499 28.879366 31.250835 31.279762

sequential/batch_normalization/batchnorm/sub f4 [64]
00000000: 0450 223d 547b b23c f03c 26c0 09c4 b6bb
00000010: dbdb 15c0 a92a 22be 8bc3 adbb 2a71 ae3d
00000020: fa03 35bd 88be 04c0 64ff 0ec0 4134 1bbd
00000030: f57a 33bd 3858 28c0 281a b63c 700e 02be
00000040: 76f9 e43c 93de f93b 5f16 2b3d 5f43 79bd
00000050: 5cb3 dc3c f0ad b9bb bf3c 01bf 98a8 16bd
00000060: 0b61 c0bc 3e84 11c0 202e ac37 64f6 cd3b
00000070: 3aa7 3a3d 2577 c4bc 12fa a73d c903 e13c
00000080: ce0a 41c0 e9b2 b4bf 175e b6bc 9636 d43c
00000090: 6e03 2bbe ca67 4ec0 63ac abbc c891 87bc
000000a0: 59fa 29bc 2cdf 963c 1b8b 14c0 7ab9 ed3d
000000b0: eac7 693d 3459 20bd 1d1b fd3b 2b29 a93d
000000c0: d33c 51c0 232d e2bf 6a55 103d 4eab f8bc
000000d0: c4dc 0c3d 9723 083d 30fc 633b f765 08c0
000000e0: 7742 31bd 9970 193d b40f b23c 83c6 503d
000000f0: ed2c b0bc 4631 3abc 2ff2 af3c 4008 1cbd
0.03962709 0.021787323 -2.5974693 -0.0055775684 -2.341544 -0.15836586 -0.0053028516 0.08517678
-0.044193245 -2.074129 -2.2343378 -0.03789163 -0.043818433 -2.6303844 0.02222927 -0.1270082
0.027950983 0.00762541 0.04176938 -0.060855266 0.026940994 -0.005666487 -0.50483316 -0.036781877
-0.023483774 -2.2736964 2.0525476e-05 0.0062854756 0.045569636 -0.023982594 0.08201994 0.027467625
-3.0162845 -1.4117099 -0.022261662 0.025904935 -0.16700527 -3.2250848 -0.020956224 -0.016549006
-0.010374629 0.018416964 -2.3209903 0.116076425 0.05707542 -0.03914757 0.0077241794 0.08259805
-3.2693374 -1.7670025 0.035237707 -0.030355122 0.034390226 0.033237066 0.0034787767 -2.1312234
-0.043276276 0.037460897 0.021736003 0.050970566 -0.021505797 -0.011364287 0.021477787 -0.038093805

sequential/conv1d/BiasAdd/ReadVariableOp f4 [64]
00000000: f5c5 9dbb a5f0 55bc d7da 653e a266 86bc
00000010: 70f3 c63d b2dc cabc 9f0d 84bb c7b3 70bc
00000020: 4bef d0bb 83d7 913d 1f34 163e d8e0 93bc
00000030: 45ee 31bc 48ef ed3c 3409 27bc e995 8dbc
00000040: 62d4 0d3d 916a d6bc 0070 343d 9fde 61bc
00000050: d18b 35bd 8976 f63d 253e 13bd be2d 45bc
00000060: 6738 a2bb 61f3 373e 2cd4 8ebc 864e 66bc
00000070: 26d3 87bc 7781 a5bb c169 bebb ebfd f7bb
00000080: bffd 293e f72c 053e f5be dbbb edf9 d73c
00000090: 9444 cdbc 6b72 193e 3769 20bc d94a 89bb
000000a0: 67e4 06bc d1ae b2bb 45a8 3f3e 1195 ffbb
000000b0: 0c92 6fbc f7ec 4abc cc63 fcbb d0cc 4bbc
000000c0: d8d7 a03e 8eb2 db3c 7cc6 19bd 1241 70bb
000000d0: 6b62 4dbc 5ace 9cbc 14d8 6ebc b22b 243d
000000e0: ce0e 0dbc 2280 e7bc ef9a b8bc 6b8e 46bc
000000f0: 728f 8cbc 70a0 3dbd b023 96bb 1682 85bc
-0.004814858 -0.013057862 0.22446762 -0.016406361 0.09714401 -0.024763439 -0.004029944 -0.0146913
-0.006376182 0.07121184 0.1466832 -0.01805155 -0.010860031 0.029044762 -0.010195065 -0.017283397
0.034626372 -0.026173862 0.044052124 -0.013785987 -0.044322792 0.120343275 -0.035947938 -0.012034832
-0.0049505713 0.17963935 -0.017435156 -0.014056807 -0.016580176 -0.005050834 -0.0058109467 -0.007568111
0.16600703 0.13005434 -0.0067061135 0.026364291 -0.025057115 0.14985053 -0.00979071 -0.0041898307
-0.008233166 -0.0054529686 0.18716533 -0.0077997525 -0.014622223 -0.012385598 -0.0077023264 -0.012438968
0.31414676 0.02681854 -0.037542805 -0.0036659879 -0.012535672 -0.019141365 -0.014577884 0.040080734
-0.008609487 -0.02825934 -0.022534816 -0.012118916 -0.017158244 -0.046295583 -0.004581891 -0.016297381

sequential/conv1d_1/BiasAdd/ReadVariableOp f4 [128]
00000000: 0de4 803b 5f4c 8c3d f460 fabd d114 833c
00000010: 1d33 5aba 423b 4dbb da14 dc3c c586 52bd
00000020: 4320 1fbd 8797 9b3d 23fe 2dbd c4cc 8fbd
00000030: 2d63 acbd 4671 2bbe 8fd3 5c3d aa29 1cbd
00000040: 2084 f53c 1f2e 49bc d723 56bd 8435 593b
00000050: 47c3 a0bd 19d3 1dbe bff1 adbd 3dac 993d
00000060: adce 93bc cc85 41bd 4fb8 c33d dc7d 983d
00000070: 9088 a5bd 5edd 6e3c a1fb b03c cd63 34bd
00000080: c5f6 b93d ea63 57be bd55 e7bd 878c 67bd
00000090: ad9e 06be 5f4c 543d 039a 0fbd 7e95 913c
000000a0: 5c78 3a3d f011 f33c 1205 33be 35b5 1cbd
000000b0: e2a9 f0bd b546 823d 5e85 80bd e592 95bd
000000c0: 0b10 8d3d d072 bbbd ca54 823c 98b4 0a3d
000000d0: c23f 523d be4b bfbd 2e86 c13d 1d54 88bd
000000e0: 5b10 b93d d364 3cbe 3adc ef3d 7cab 6abb
000000f0: 6d58 ad3d c957 95bc 0f06 b7bc 9404 45bc
00000100: 7361 ef3d eecc 4dbb aa6b 06bd c2bc 6abd
00000110: 44a9 66bd 1ad5 9d3d eca5 263d f291 e8bd
00000120: 6523 7fbd 2b18 093d dc2f f63d c8c0 4dbd
00000130: 6d11 c53d b5f2 ae3d 2bdd d13d 35a1 723b
00000140: f775 70bd 18da 86bd a195 60bd 79ee c1bb
00000150: 312e cf3b 9652 713d fe5d a8bb f52d 88bd
00000160: b132 43bd a33a 25bc e378 bebd 0790 c43d
00000170: 8cfe 16bb f8f1 e93d 3a59 b9bd 667c cabd
00000180: a1e3 b03d 256a 1dbd fe52 44bd 4504 893d
00000190: 46aa c33d 2454 dbbd 1085 fdbc 9168 8cbd
000001a0: d8ce 5fbc 86dd 86bc e94c da3c 0b9f 993d
000001b0: 7efc 00bd 85c1 eabd 71d7 bdbd 4d2d bcbd
000001c0: 1995 403c e1e4 313d 4e70 54be d153 a2bd
000001d0: dfa0 073d 8de7 e3bd 27d8 253d 47e9 0b3d
000001e0: 8883 12bc 2f0a d6bd bb05 4bbd f21e 8abb
000001f0: 10e1 46bb 6fd2 013e 926a c63d c3e1 1dbe
0.003933436 0.06850504 -0.122255236 0.016001137 -0.00083236565 -0.0031315838 0.026865412 -0.051398057
-0.038849127 0.07597261 -0.04247869 -0.07021478 -0.08417354 -0.16742429 0.053912695 -0.03812567
0.029970229 -0.0122790625 -0.052280273 0.003314347 -0.07849746 -0.15412559 -0.08493375 0.07503555
-0.018042887 -0.04724674 0.095566384 0.07445881 -0.08082688 0.014579145 0.021604361 -0.04404049
0.09080271 -0.21034208 -0.1129565 -0.0565305 -0.13146468 0.051830646 -0.035058986 0.017771479
0.04552494 0.02967164 -0.17482403 -0.03825875 -0.117511526 0.063611425 -0.06275438 -0.073034085
0.068878256 -0.09152758 0.015909571 0.033863634 0.051330335 -0.093406186 0.09449421 -0.06656668
0.09036323 -0.18397836 0.11711927 -0.003580778 0.084641315 -0.018230336 -0.022341756 -0.012025017
0.11688509 -0.0031402665 -0.03281752 -0.05730892 -0.056313768 0.077066615 0.04068558 -0.11355962
-0.062289614 0.033470314 0.12020847 -0.05023268 0.09622464 0.085423864 0.102472626 0.0037022356
-0.05870625 -0.06584567 -0.054830197 -0.0059183207 0.006322645 0.05891665 -0.005138158 -0.066493906
-0.047655765 -0.010084781 -0.09300401 0.095977835 -0.0023039905 0.11423105 -0.09050222 -0.09887008
0.08637167 -0.038431305 -0.04793071 0.066902675 0.095539615 -0.10709408 -0.030947238 -0.06855882
-0.013660155 -0.016463052 0.026648002 0.07501038 -0.031490795 -0.11462692 -0.09269608 -0.09188328
0.011754298 0.043431167 -0.20745966 -0.07926143 0.033112403 -0.11128149 0.040489342 0.034158017
-0.008942492 -0.10451161 -0.049566012 -0.0042151147 -0.003034655 0.1267793 0.096882954 -0.15418153

sequential/conv1d/Conv1D i1 [64, 1, 3, 63]
00000000: 5a46 e2b7 aafd 59e5 0f6d feb8 5cd9 9f32
00000010: 172e b6c9 ab8e bd2b f823 e9c8 fa5f a7a9
00000020: d8cf a6eb 8981 633a 22f1 53e5 e5a2 1545
00000030: c111 3911 4bf5 39f4 530c 00d3 ef10 6a38
00000040: 1b56 a016 62dc efb5 5ad4 14f5 5962 52e4
00000050: 2fdd a5b7 905f cf0f 60b7 3f2f aab4 99cc
00000060: 1aad 1889 bf76 c76e dcf8 c2c6 dd24 b6d9
00000070: 9313 f7f2 0e4b 55fa a21d 0fb6 ee78 9f31
00000080: dcf4 499f 6015 9aa9 cd0f a2d7 2414 a5d5
00000090: ddc0 112f bde1 5121 7ceb 14a7 5910 add7
000000a0: 1db1 d9ea 16d6 28fb 19c5 22b5 9aa2 50b7
000000b0: e10c 5309 b59d cd40 2e4a 0817 edaa 51ef
000000c0: f99d 1221 c0e9 2128 9c4c 31a4 b819 338e
000000d0: 2ced bd90 662e 4138 ef2a 27fa 3522 e13d
000000e0: dbd9 23e7 fea2 cf1b a915 2ee3 c3c7 3344
000000f0: c881 b00b 19ba 193a 3bf8 53bc 2532 e5b9
90 70 -30 -73 -86 -3 89 -27
15 109 -2 -72 92 -39 -97 50
23 46 -74 -55 -85 -114 -67 43
-8 35 -23 -56 -6 95 -89 -87
-40 -49 -90 -21 -119 -127 99 58
34 -15 83 -27 -27 -94 21 69
-63 17 57 17 75 -11 57 -12
83 12 0 -45 -17 16 106 56
27 86 -96 22 98 -36 -17 -75
90 -44 20 -11 89 98 82 -28
47 -35 -91 -73 -112 95 -49 15
96 -73 63 47 -86 -76 -103 -52
26 -83 24 -119 -65 118 -57 110
-36 -8 -62 -58 -35 36 -74 -39
-109 19 -9 -14 14 75 85 -6
-94 29 15 -74 -18 120 -97 49
-36 -12 73 -97 96 21 -102 -87
-51 15 -94 -41 36 20 -91 -43
-35 -64 17 47 -67 -31 81 33
124 -21 20 -89 89 16 -83 -41
29 -79 -39 -22 22 -42 40 -5
25 -59 34 -75 -102 -94 80 -73
-31 12 83 9 -75 -99 -51 64
46 74 8 23 -19 -86 81 -17
-7 -99 18 33 -64 -23 33 40
-100 76 49 -92 -72 25 51 -114
44 -19 -67 -112 102 46 65 56
-17 42 39 -6 53 34 -31 61
-37 -39 35 -25 -2 -94 -49 27
-87 21 46 -29 -61 -57 51 68
-56 -127 -80 11 25 -70 25 58
59 -8 83 -68 37 50 -27 -71

sequential/conv1d_1/Conv1D i1 [128, 1, 3, 64]
00000000: e91a c335 3a19 b25a cd5a 7f33 c030 e0e9
00000010: 1fcf ab2d eb0d 1eec c741 250d dcea bbe4
00000020: c6fe 04bf 5156 c956 c03b 6c0c e002 e21d
00000030: 0df6 ae30 16ca 2402 11d3 dfd4 c70a ee46
00000040: 2709 c516 1b2d eef1 c819 38e7 44f6 eb92
00000050: 1513 be2b b9f9 c011 ebc0 11fc 1e06 f417
00000060: 07ce 2fbb 2453 f0f8 3fe2 71c0 21ec b8d2
00000070: de18 18c0 d618 1fe7 d1d4 d5e4 0cbe 27d0
00000080: b6df f2bb fca7 ff15 e05e 15cc cc1d 199f
00000090: c1ca b7db db15 b41a ec29 3e16 1cf6 a6ea
000000a0: a0f3 ea01 2137 d63f de1d 4c34 ddfb 16f5
000000b0: f216 ccfd f5f4 2616 ec17 edbf 1aed d821
000000c0: 1814 dbed ec00 d935 10c9 d5ec 0326 eef6
000000d0: 1dff fbbd fbfe 29ca e2e3 fc2b 08d5 0dcd
000000e0: e166 d20a fdd5 f1eb 232f a867 10f0 d0eb
000000f0: 2dfa ea06 c005 14ef fbee cd08 1c1a 04c6
-23 26 -61 53 58 25 -78 90
-51 90 127 51 -64 48 -32 -23
31 -49 -85 45 -21 13 30 -20
-57 65 37 13 -36 -22 -69 -28
-58 -2 4 -65 81 86 -55 86
-64 59 108 12 -32 2 -30 29
13 -10 -82 48 22 -54 36 2
17 -45 -33 -44 -57 10 -18 70
39 9 -59 22 27 45 -18 -15
-56 25 56 -25 68 -10 -21 -110
21 19 -66 43 -71 -7 -64 17
-21 -64 17 -4 30 6 -12 23
7 -50 47 -69 36 83 -16 -8
63 -30 113 -64 33 -20 -72 -46
-34 24 24 -64 -42 24 31 -25
-47 -44 -43 -28 12 -66 39 -48
-74 -33 -14 -69 -4 -89 -1 21
-32 94 21 -52 -52 29 25 -97
-63 -54 -73 -37 -37 21 -76 26
-20 41 62 22 28 -10 -90 -22
-96 -13 -22 1 33 55 -42 63
-34 29 76 52 -35 -5 22 -11
-14 22 -52 -3 -11 -12 38 22
-20 23 -19 -65 26 -19 -40 33
24 20 -37 -19 -20 0 -39 53
16 -55 -43 -20 3 38 -18 -10
29 -1 -5 -67 -5 -2 41 -54
-30 -29 -4 43 8 -43 13 -51
-31 102 -46 10 -3 -43 -15 -21
35 47 -88 103 16 -16 -48 -21
45 -6 -22 6 -64 5 20 -17
-5 -18 -51 8 28 26 4 -58

sequential/dense/MatMul i1 [128, 768] scale=0.002297872 zero_point=0
00000000: 011b d5f3 10ed 09ef fae5 2c01 1335 cb04
00000010: cdf6 f300 f809 0514 ef12 ebf0 f80a f6fa
00000020: 1d1b 1d0c ec0a 2ff4 1ffb 0f1a 1414 cb03
00000030: fecd e616 2c1c e5f4 1a15 f9fe 17eb 00e3
00000040: f423 07e5 0112 140f cadc ac1e 10f3 d2e4
00000050: e7d8 e504 20fb 1009 dd31 1a2d d70f faf2
00000060: 3be2 241b f622 ee0d f5e9 03c6 120b 1eeb
00000070: b1fa f21e ecfe 26f0 f332 1520 e9e7 0fca
00000080: 1216 e5f9 28fa f614 0a0b 0711 1d37 0408
00000090: e832 0c14 08fd ec10 dd1f e5c7 e803 d3cf
000000a0: 1812 0715 f433 f2db f9ec 0cfc 2f1e 00f8
000000b0: 03db ef35 0014 efe0 eb0a f7e1 f0e1 ef01
000000c0: e002 39bd 15fa 1a0d d0dc f608 00f6 f7f7
000000d0: d9d9 c23a efe1 1607 d919 ff0f 0300 22c4
000000e0: 14e6 1a1e 11fa f417 f7ee f71d 21fc f9e9
000000f0: c7e0 e347 e31e 11f4 db48 e90b ffe1 02bb
0.002297872 0.06204254 -0.0988085 -0.029872335 0.03676595 -0.043659568 0.020680849 -0.039063822
-0.013787232 -0.06204254 0.10110637 0.002297872 0.043659568 0.12178721 -0.12178721 0.009191488
-0.11719147 -0.02297872 -0.029872335 0.0 -0.018382976 0.020680849 0.01148936 0.04595744
-0.039063822 0.041361697 -0.048255313 -0.03676595 -0.018382976 0.02297872 -0.02297872 -0.013787232
0.06663829 0.06204254 0.06663829 0.027574465 -0.04595744 0.02297872 0.10799998 -0.027574465
0.07123403 -0.01148936 0.03446808 0.05974467 0.04595744 0.04595744 -0.12178721 0.006893616
-0.004595744 -0.11719147 -0.05974467 0.050553184 0.10110637 0.06434041 -0.06204254 -0.027574465
0.05974467 0.048255313 -0.016085103 -0.004595744 0.052851055 -0.048255313 0.0 -0.06663829
-0.027574465 0.080425516 0.016085103 -0.06204254 0.002297872 0.041361697 0.04595744 0.03446808
-0.12408508 -0.082723394 -0.19302125 0.06893616 0.03676595 -0.029872335 -0.10570211 -0.06434041
-0.0574468 -0.09191488 -0.06204254 0.009191488 0.0735319 -0.01148936 0.03676595 0.020680849
-0.080425516 0.11259573 0.05974467 0.10340424 -0.09421275 0.03446808 -0.013787232 -0.032170206
0.13557445 -0.06893616 0.082723394 0.06204254 -0.02297872 0.078127645 -0.041361697 0.029872335
-0.025276592 -0.052851055 0.006893616 -0.13327658 0.041361697 0.025276592 0.06893616 -0.048255313
-0.18153189 -0.013787232 -0.032170206 0.06893616 -0.04595744 -0.004595744 0.087319136 -0.03676595
-0.029872335 0.1148936 0.048255313 0.0735319 -0.052851055 -0.0574468 0.03446808 -0.12408508
0.041361697 0.050553184 -0.06204254 -0.016085103 0.09191488 -0.013787232 -0.02297872 0.04595744
0.02297872 0.025276592 0.016085103 0.039063822 0.06663829 0.12638296 0.009191488 0.018382976
-0.05514893 0.1148936 0.027574465 0.04595744 0.018382976 -0.006893616 -0.04595744 0.03676595
-0.080425516 0.07123403 -0.06204254 -0.1309787 -0.05514893 0.006893616 -0.10340424 -0.11259573
0.05514893 0.041361697 0.016085103 0.048255313 -0.027574465 0.11719147 -0.032170206 -0.085021265
-0.016085103 -0.04595744 0.027574465 -0.009191488 0.10799998 0.06893616 0.0 -0.018382976
0.006893616 -0.085021265 -0.039063822 0.12178721 0.0 0.04595744 -0.039063822 -0.0735319
-0.048255313 0.02297872 -0.020680849 -0.07123403 -0.03676595 -0.07123403 -0.039063822 0.002297872
-0.0735319 0.004595744 0.1309787 -0.15395743 0.048255313 -0.013787232 0.05974467 0.029872335
-0.11029786 -0.082723394 -0.02297872 0.018382976 0.0 -0.02297872 -0.020680849 -0.020680849
-0.08961701 -0.08961701 -0.14246807 0.13327658 -0.039063822 -0.07123403 0.050553184 0.016085103
-0.08961701 0.0574468 -0.002297872 0.03446808 0.006893616 0.0 0.078127645 -0.13787232
0.04595744 -0.05974467 0.05974467 0.06893616 0.039063822 -0.013787232 -0.027574465 0.052851055
-0.020680849 -0.041361697 -0.020680849 0.06663829 0.075829774 -0.009191488 -0.016085103 -0.052851055
-0.1309787 -0.0735319 -0.06663829 0.16314891 -0.06663829 0.06893616 0.039063822 -0.027574465
-0.085021265 0.16544679 -0.052851055 0.025276592 -0.002297872 -0.07123403 0.004595744 -0.15855317

sequential/dense_1/MatMul i1 [28, 128] scale=0.0031147648 zero_point=0
00000000: 13ea e3db 3129 eaec c1df f5c1 120b eb15
00000010: eee3 190e c821 ddf8 c9d3 b4c6 2906 fb0d
00000020: dc14 e8cd e7d4 241b e329 26bd c7b9 e9fc
00000030: b734 baee 1d0b c8fb 1cf6 1224 2ae6 d4cc
00000040: ccf4 c9e4 0bce e4f4 32a7 0cd9 b2dd 08c4
00000050: 2e0c 1105 1be5 2b16 de27 b307 37c8 de0e
00000060: ac05 1b02 bcc5 22f5 00da 0d06 f2ef 1cc1
00000070: ab0f 1eed c4c0 31c9 b4e3 e3b2 d21b 23c2
00000080: 88c8 1f28 23f1 2a1d 15ee ee35 decd ea0a
00000090: f722 a907 d1ad 221e dafb fc1a 2ca3 edd6
000000a0: a912 e8a9 19bf b6c8 ecd2 0428 2fe9 d306
000000b0: 280e e900 cfc7 27a9 e21c cdca dcf4 c1dd
000000c0: 02ec 1e1a ff0e d83c 0fe9 e5e9 21c7 e4c6
000000d0: a611 dc35 e3ca b831 eed8 dfba c1d7 25cc
000000e0: 1e27 d5ea f131 c4cf c62c d016 cf12 efeb
000000f0: 1d02 f2f0 1b21 ca30 2b31 1f21 c6fa fa1e
0.05918053 -0.06852482 -0.09032818 -0.115246296 0.15262347 0.12770535 -0.06852482 -0.062295295
-0.19623019 -0.10278724 -0.03426241 -0.19623019 0.056065768 0.03426241 -0.06541006 0.06541006
-0.056065768 -0.09032818 0.07786912 0.043606706 -0.17442682 0.10278724 -0.10901677 -0.024918118
-0.17131206 -0.14016442 -0.23672213 -0.18065636 0.12770535 0.01868859 -0.015573824 0.040491942
-0.112131536 0.062295295 -0.07475436 -0.15885301 -0.07786912 -0.13704965 0.112131536 0.08409865
-0.09032818 0.12770535 0.11836106 -0.20868924 -0.1775416 -0.2211483 -0.07163959 -0.012459059
-0.22737783 0.16196777 -0.21803354 -0.056065768 0.09032818 0.03426241 -0.17442682 -0.015573824
0.08721341 -0.031147648 0.056065768 0.112131536 0.13082013 -0.080983885 -0.13704965 -0.16196777
-0.16196777 -0.03737718 -0.17131206 -0.08721341 0.03426241 -0.15573823 -0.08721341 -0.03737718
0.15573823 -0.27721408 0.03737718 -0.12147583 -0.24295166 -0.10901677 0.024918118 -0.1868859
0.14327918 0.03737718 0.052951 0.015573824 0.08409865 -0.08409865 0.13393489 0.06852482
-0.105902 0.12147583 -0.23983689 0.021803353 0.17131206 -0.17442682 -0.105902 0.043606706
-0.26164025 0.015573824 0.08409865 0.0062295296 -0.211804 -0.18377112 0.105902 -0.03426241
0.0 -0.11836106 0.040491942 0.01868859 -0.043606706 -0.052951 0.08721341 -0.19623019
-0.264755 0.046721473 0.09344295 -0.05918053 -0.1868859 -0.19934495 0.15262347 -0.17131206
-0.23672213 -0.09032818 -0.09032818 -0.24295166 -0.14327918 0.08409865 0.10901677 -0.19311541
-0.3737718 -0.17442682 0.09655771 0.12459059 0.10901677 -0.046721473 0.13082013 0.09032818
0.06541006 -0.056065768 -0.056065768 0.16508253 -0.105902 -0.15885301 -0.06852482 0.031147648
-0.028032884 0.105902 -0.27098453 0.021803353 -0.14639394 -0.2585255 0.105902 0.09344295
-0.11836106 -0.015573824 -0.012459059 0.080983885 0.13704965 -0.28967312 -0.05918053 -0.13082013
-0.27098453 0.056065768 -0.07475436 -0.27098453 0.07786912 -0.20245971 -0.23049259 -0.17442682
-0.062295295 -0.14327918 0.012459059 0.12459059 0.14639394 -0.07163959 -0.14016442 0.01868859
0.12459059 0.043606706 -0.07163959 0.0 -0.15262347 -0.1775416 0.12147583 -0.27098453
-0.09344295 0.08721341 -0.15885301 -0.1681973 -0.112131536 -0.03737718 -0.19623019 -0.10901677
0.0062295296 -0.062295295 0.09344295 0.080983885 -0.0031147648 0.043606706 -0.12459059 0.1868859
0.046721473 -0.07163959 -0.08409865 -0.07163959 0.10278724 -0.1775416 -0.08721341 -0.18065636
-0.28032884 0.052951 -0.112131536 0.16508253 -0.09032818 -0.1681973 -0.22426307 0.15262347
-0.056065768 -0.12459059 -0.10278724 -0.21803354 -0.19623019 -0.12770535 0.115246296 -0.16196777
0.09344295 0.12147583 -0.13393489 -0.06852482 -0.046721473 0.15262347 -0.1868859 -0.15262347
-0.18065636 0.13704965 -0.14950871 0.06852482 -0.15262347 0.056065768 -0.052951 -0.06541006
0.09032818 0.0062295296 -0.043606706 -0.049836237 0.08409865 0.10278724 -0.1681973 0.14950871
0.13393489 0.15262347 0.09655771 0.10278724 -0.18065636 -0.01868859 -0.01868859 0.09344295
